…
"-1\"></a>    </span>\n<span id=\"cb17-7\"><a href=\"#cb17-7\" aria-hidden=\"true\" tabindex=\"-1\"></a>optimizer <span class=\"op\">=</span> optim.Adam(my_model.parameters(),lr<span class=\"op\">=</span>args.lr)</span>\n<span id=\"cb17-8\"><a href=\"#cb17-8\" aria-hidden=\"true\" tabindex=\"-1\"></a><span class=\"bu\">print</span>(my_model)</span>\n<span id=\"cb17-9\"><a href=\"#cb17-9\" aria-hidden=\"true\" tabindex=\"-1\"></a><span class=\"bu\">print</span>(loss_function)</span></code></pre></div>\n<pre><code>MultiScaleNet(\n  (scale3_net): SingleScaleNet(\n    (head): Sequential(\n      (0): Conv2d(3, 8, kernel_size=(5, 5), stride=(1, 1), padding=(2, 2))\n      (1): ReLU(inplace=True)\n    )\n    (body): Sequential(\n      (0): ResidualBlock(\n        (body): Sequential(\n          (0): Conv2d(8, 8, kernel_size=(3, 3), stride=(1, 1), padding=(1, 1))\n          (1): ReLU(inplace=True)\n          (2): Conv2d(8, 8, kernel_size=(3, 3), stride=(1, 1), padding=(1, 1))\n        )\n      )\n      (1): ResidualBlock(\n        (body): Sequential(\n          (0): Conv2d(8, 8, kernel_size=(3, 3), stride=(1, 1), padding=(1, 1))\n          (1): ReLU(inplace=True)\n          (2): Conv2d(8, 8, kernel_size=(3, 3), stride=(1, 1), padding=(1, 1))\n        )\n      )\n      (2): ResidualBlock(\n        (body): Sequential(\n          (0): Conv2d(8, 8, kernel_size=(3, 3), stride=(1, 1), padding=(1, 1))\n          (1): ReLU(inplace=True)\n          (2): Conv2d(8, 8, kernel_size=(3, 3), stride=(1, 1), padding=(1, 1))\n        )\n      )\n    )\n    (tail): Sequential(\n      (0): Conv2d(8, 3, kernel_size=(5, 5), stride=(1, 1), padding=(2, 2))\n    )\n  )\n  (upconv3): UpConv(\n    (body): Sequential(\n      (0): Conv2d(3, 12, kernel_size=(3, 3), stride=(1, 1), padding=(1, 1))\n      (1): PixelShuffle(upscale_factor=2)\n      (2): ReLU(inplace=True)\n    )\n  )\n  (scale2_net): SingleScaleNet(\n    (head): Sequential(\n      (0): Conv2d(6, 8, kernel_size=(5, 5), stride=(1, 1), padding=(2, 2))\n      (1): ReLU(inplace=True)\n    )\n    (body): Sequential(\n      (0): ResidualBlock(\n        (body): Sequential(\n          (0): Conv2d(8, 8, kernel_size=(3, 3), stride=(1, 1), padding=(1, 1))\n          (1): ReLU(inplace=True)\n          (2): Conv2d(8, 8, kernel_size=(3, 3), stride=(1, 1), padding=(1, 1))\n        )\n      )\n      (1): ResidualBlock(\n        (body): Sequential(\n          (0): Conv2d(8, 8, kernel_size=(3, 3), stride=(1, 1), padding=(1, 1))\n          (1): ReLU(inplace=True)\n          (2): Conv2d(8, 8, kernel_size=(3, 3), stride=(1, 1), padding=(1, 1))\n        )\n      )\n      (2): ResidualBlock(\n        (body): Sequential(\n          (0): Conv2d(8, 8, kernel_size=(3, 3), stride=(1, 1), padding=(1, 1))\n          (1): ReLU(inplace=True)\n          (2): Conv2d(8, 8, kernel_size=(3, 3), stride=(1, 1), padding=(1, 1))\n        )\n      )\n    )\n    (tail): Sequential(\n      (0): Conv2d(8, 3, kernel_size=(5, 5), stride=(1, 1), padding=(2, 2))\n    )\n  )\n  (upconv2): UpConv(\n    (body): Sequential(\n      (0): Conv2d(3, 12, kernel_size=(3, 3), stride=(1, 1), padding=(1, 1))\n      (1): PixelShuffle(upscale_factor=2)\n      (2): ReLU(inplace=True)\n    )\n  )\n  (scale1_net): SingleScaleNet(\n    (head): Sequential(\n      (0): Conv2d(6, 8, kernel_size=(5, 5), stride=(1, 1), padding=(2, 2))\n      (1): ReLU(inplace=True)\n    )\n    (body): Sequential(\n      (0): ResidualBlock(\n        (body): Sequential(\n          (0): Conv2d(8, 8, kernel_size=(3, 3), stride=(1, 1), padding=(1, 1))\n          (1): ReLU(inplace=True)\n          (2): Conv2d(8, 8, kernel_size=(3, 3), stride=(1, 1), padding=(1, 1))\n        )\n      )\n      (1): ResidualBlock(\n        (body): Sequential(\n          (0): Conv2d(8, 8, kernel_size=(3, 3), stride=(1, 1), padding=(1, 1))\n          (1): ReLU(inplace=True)\n          (2): Conv2d(8, 8, kernel_size=(3, 3), stride=(1, 1), padding=(1, 1))\n        )\n      )\n      (2): ResidualBlock(\n        (body): Sequential(\n          (0): Conv2d(8, 8, kernel_size=(3, 3), stride=(1, 1), padding=(1, 1))\n          (1): ReLU(inplace=True)\n          (2): Conv2d(8, 8, kernel_size=(3, 3), stride=(1, 1), padding=(1, 1))\n        )\n      )\n    )\n    (tail): Sequential(\n      (0): Conv2d(8, 3, kernel_size=(5, 5), stride=(1, 1), padding=(2, 2))\n    )\n  )\n)\nMSELoss()</code></pre>\n<h3 id=\"损失函数和优化器\">损失函数和优化器</h3>\n<ul>\n<li>Adam 优化器，初始学习率为 lr，其相对于\nSGD，更自动化，实际中需要调整的参数较少，但需要注意的是，其使用内存也比\nSGD 要高。</li>\n<li>损失函数使用最常见的均方损失函数（MSELoss）: <img src=\"/.top//Users\\Administrator\\AppData\\Roaming\\Typora\\typora-user-images\\image-20211120222105417.png\" alt=\"image-20211120222105417\"> 
…
