…
<span id="cb17-6"><a href="#cb17-6" aria-hidden="true" tabindex="-1"></a>    </span>
<span id="cb17-7"><a href="#cb17-7" aria-hidden="true" tabindex="-1"></a>optimizer <span class="op">=</span> optim.Adam(my_model.parameters(),lr<span class="op">=</span>args.lr)</span>
<span id="cb17-8"><a href="#cb17-8" aria-hidden="true" tabindex="-1"></a><span class="bu">print</span>(my_model)</span>
<span id="cb17-9"><a href="#cb17-9" aria-hidden="true" tabindex="-1"></a><span class="bu">print</span>(loss_function)</span></code></pre></div>
<pre><code>MultiScaleNet(
  (scale3_net): SingleScaleNet(
    (head): Sequential(
      (0): Conv2d(3, 8, kernel_size=(5, 5), stride=(1, 1), padding=(2, 2))
      (1): ReLU(inplace=True)
    )
    (body): Sequential(
      (0): ResidualBlock(
        (body): Sequential(
          (0): Conv2d(8, 8, kernel_size=(3, 3), stride=(1, 1), padding=(1, 1))
          (1): ReLU(inplace=True)
          (2): Conv2d(8, 8, kernel_size=(3, 3), stride=(1, 1), padding=(1, 1))
        )
      )
      (1): ResidualBlock(
        (body): Sequential(
          (0): Conv2d(8, 8, kernel_size=(3, 3), stride=(1, 1), padding=(1, 1))
          (1): ReLU(inplace=True)
          (2): Conv2d(8, 8, kernel_size=(3, 3), stride=(1, 1), padding=(1, 1))
        )
      )
      (2): ResidualBlock(
        (body): Sequential(
          (0): Conv2d(8, 8, kernel_size=(3, 3), stride=(1, 1), padding=(1, 1))
          (1): ReLU(inplace=True)
          (2): Conv2d(8, 8, kernel_size=(3, 3), stride=(1, 1), padding=(1, 1))
        )
      )
    )
    (tail): Sequential(
      (0): Conv2d(8, 3, kernel_size=(5, 5), stride=(1, 1), padding=(2, 2))
    )
  )
  (upconv3): UpConv(
    (body): Sequential(
      (0): Conv2d(3, 12, kernel_size=(3, 3), stride=(1, 1), padding=(1, 1))
      (1): PixelShuffle(upscale_factor=2)
      (2): ReLU(inplace=True)
    )
  )
  (scale2_net): SingleScaleNet(
    (head): Sequential(
      (0): Conv2d(6, 8, kernel_size=(5, 5), stride=(1, 1), padding=(2, 2))
      (1): ReLU(inplace=True)
    )
    (body): Sequential(
      (0): ResidualBlock(
        (body): Sequential(
          (0): Conv2d(8, 8, kernel_size=(3, 3), stride=(1, 1), padding=(1, 1))
          (1): ReLU(inplace=True)
          (2): Conv2d(8, 8, kernel_size=(3, 3), stride=(1, 1), padding=(1, 1))
        )
      )
      (1): ResidualBlock(
        (body): Sequential(
          (0): Conv2d(8, 8, kernel_size=(3, 3), stride=(1, 1), padding=(1, 1))
          (1): ReLU(inplace=True)
          (2): Conv2d(8, 8, kernel_size=(3, 3), stride=(1, 1), padding=(1, 1))
        )
      )
      (2): ResidualBlock(
        (body): Sequential(
          (0): Conv2d(8, 8, kernel_size=(3, 3), stride=(1, 1), padding=(1, 1))
          (1): ReLU(inplace=True)
          (2): Conv2d(8, 8, kernel_size=(3, 3), stride=(1, 1), padding=(1, 1))
        )
      )
    )
    (tail): Sequential(
      (0): Conv2d(8, 3, kernel_size=(5, 5), stride=(1, 1), padding=(2, 2))
    )
  )
  (upconv2): UpConv(
    (body): Sequential(
      (0): Conv2d(3, 12, kernel_size=(3, 3), stride=(1, 1), padding=(1, 1))
      (1): PixelShuffle(upscale_factor=2)
      (2): ReLU(inplace=True)
    )
  )
  (scale1_net): SingleScaleNet(
    (head): Sequential(
      (0): Conv2d(6, 8, kernel_size=(5, 5), stride=(1, 1), padding=(2, 2))
      (1): ReLU(inplace=True)
    )
    (body): Sequential(
      (0): ResidualBlock(
        (body): Sequential(
          (0): Conv2d(8, 8, kernel_size=(3, 3), stride=(1, 1), padding=(1, 1))
          (1): ReLU(inplace=True)
          (2): Conv2d(8, 8, kernel_size=(3, 3), stride=(1, 1), padding=(1, 1))
        )
      )
      (1): ResidualBlock(
        (body): Sequential(
          (0): Conv2d(8, 8, kernel_size=(3, 3), stride=(1, 1), padding=(1, 1))
          (1): ReLU(inplace=True)
          (2): Conv2d(8, 8, kernel_size=(3, 3), stride=(1, 1), padding=(1, 1))
        )
      )
      (2): ResidualBlock(
        (body): Sequential(
          (0): Conv2d(8, 8, kernel_size=(3, 3), stride=(1, 1), padding=(1, 1))
          (1): ReLU(inplace=True)
          (2): Conv2d(8, 8, kernel_size=(3, 3), stride=(1, 1), padding=(1, 1))
        )
      )
    )
    (tail): Sequential(
      (0): Conv2d(8, 3, kernel_size=(5, 5), stride=(1, 1), padding=(2, 2))
    )
  )
)
MSELoss()</code></pre>
<h3 id="损失函数和优化器">损失函数和优化器</h3>
<ul>
<li>Adam 优化器，初始学习率为 lr，其相对于
SGD，更自动化，实际中需要调整的参数较少，但需要注意的是，其使用内存也比
SGD 要高。</li>
<li>损失函数使用最常见的均方损失函数（MSELoss）: <img src="/.top//Users\Administrator\AppData\Roaming\Typora\typora-user-images\image-20211120222105417.png" alt="image-20211120222105417"> 其中 <span class="math inline">\(f^{\prime}(i,j)\)</span> 和 <span class="math inline">\(f(i,j)\)</span>
…
<span id="cb23-13"><a href="#cb23-13" aria-hidden="true" tabindex="-1"></a>dec <span class="op">=</span> Decoder(OUTPUT_DIM,DEC_EMB_DIM,ENC_HID_DIM,DEC_HID_DIM,DEC_DROPOUT,attn)</span>
<span id="cb23-14"><a href="#cb23-14" aria-hidden="true" tabindex="-1"></a></span>
<span id="cb23-15"><a href="#cb23-15" aria-hidden="true" tabindex="-1"></a>model <span class="op">=</span> Seq2Seq(enc,dec,DOC_PAD_IDX,device).to(device)</span></code></pre></div>
<h4 id="查看模型">查看模型</h4>
<div class="sourceCode" id="cb24"><pre class="sourceCode python"><code class="sourceCode python"><span id="cb24-1"><a href="#cb24-1" aria-hidden="true" tabindex="-1"></a>model</span></code></pre></div>
<pre><code>Seq2Seq(
  (encoder): Encoder(
    (embedding): Embedding(16555, 4)
    (rnn): GRU(4, 8, bidirectional=True)
    (fc): Linear(in_features=16, out_features=8, bias=True)
    (dropout): Dropout(p=0.5, inplace=False)
  )
  (decoder): Decoder(
    (attention): Attention(
      (attn): Linear(in_features=24, out_features=8, bias=True)
      (v): Linear(in_features=8, out_features=1, bias=False)
    )
    (embedding): Embedding(9267, 4)
    (rnn): GRU(20, 8)
    (fc_out): Linear(in_features=28, out_features=9267, bias=True)
    (dropout): Dropout(p=0.5, inplace=False)
  )
)</code></pre>
<h3 id="模型训练">模型训练</h3>
<ul>
<li>使用之前处理的训练数据对模型训练，主要包括
<ul>
<li>定义训练函数</li>
<li>定义验证函数</li>
<li>定义时间显示函数</li>
<li>训练过程</li>
<li>模型保存</li>
</ul></li>
</ul>
<h4 id="定义训练函数">定义训练函数</h4>
<p>定义训练一个 epoch的函数，并返回损失，参数 - model: 用以训练的模型 -
iteration: 用以训练的数据迭代器 - optimizer: 训练模型使用的优化器 -
criterion: 训练模型使用的损失函数 - clip: 梯度截断的值，
…
