…
                            n_resblocks = args.n_resblocks,
                            is_skip= args.skip)
else:
    my_model = SingleScaleNet(n_feats=args.n_feats,
                             n_resblocks=args.n_resblocks,
                             is_skip = args.skip)
```


```python
if torch.cuda.is_available():
    my_model.cuda()
    loss_function = nn.MSELoss().cuda()
else:
    loss_function = nn.MSELoss()
    
optimizer = optim.Adam(my_model.parameters(),lr=args.lr)
print(my_model)
print(loss_function)
```

    MultiScaleNet(
      (scale3_net): SingleScaleNet(
        (head): Sequential(
          (0): Conv2d(3, 8, kernel_size=(5, 5), stride=(1, 1), padding=(2, 2))
          (1): ReLU(inplace=True)
        )
        (body): Sequential(
          (0): ResidualBlock(
            (body): Sequential(
              (0): Conv2d(8, 8, kernel_size=(3, 3), stride=(1, 1), padding=(1, 1))
              (1): ReLU(inplace=True)
              (2): Conv2d(8, 8, kernel_size=(3, 3), stride=(1, 1), padding=(1, 1))
            )
          )
          (1): ResidualBlock(
            (body): Sequential(
              (0): Conv2d(8, 8, kernel_size=(3, 3), stride=(1, 1), padding=(1, 1))
              (1): ReLU(inplace=True)
              (2): Conv2d(8, 8, kernel_size=(3, 3), stride=(1, 1), padding=(1, 1))
            )
          )
          (2): ResidualBlock(
            (body): Sequential(
              (0): Conv2d(8, 8, kernel_size=(3, 3), stride=(1, 1), padding=(1, 1))
              (1): ReLU(inplace=True)
              (2): Conv2d(8, 8, kernel_size=(3, 3), stride=(1, 1), padding=(1, 1))
            )
          )
        )
        (tail): Sequential(
          (0): Conv2d(8, 3, kernel_size=(5, 5), stride=(1, 1), padding=(2, 2))
        )
      )
      (upconv3): UpConv(
        (body): Sequential(
          (0): Conv2d(3, 12, kernel_size=(3, 3), stride=(1, 1), padding=(1, 1))
          (1): PixelShuffle(upscale_factor=2)
          (2): ReLU(inplace=True)
        )
      )
      (scale2_net): SingleScaleNet(
        (head): Sequential(
          (0): Conv2d(6, 8, kernel_size=(5, 5), stride=(1, 1), padding=(2, 2))
          (1): ReLU(inplace=True)
        )
        (body): Sequential(
          (0): ResidualBlock(
            (body): Sequential(
              (0): Conv2d(8, 8, kernel_size=(3, 3), stride=(1, 1), padding=(1, 1))
              (1): ReLU(inplace=True)
              (2): Conv2d(8, 8, kernel_size=(3, 3), stride=(1, 1), padding=(1, 1))
            )
          )
          (1): ResidualBlock(
            (body): Sequential(
              (0): Conv2d(8, 8, kernel_size=(3, 3), stride=(1, 1), padding=(1, 1))
              (1): ReLU(inplace=True)
              (2): Conv2d(8, 8, kernel_size=(3, 3), stride=(1, 1), padding=(1, 1))
            )
          )
          (2): ResidualBlock(
            (body): Sequential(
              (0): Conv2d(8, 8, kernel_size=(3, 3), stride=(1, 1), padding=(1, 1))
              (1): ReLU(inplace=True)
              (2): Conv2d(8, 8, kernel_size=(3, 3), stride=(1, 1), padding=(1, 1))
            )
          )
        )
        (tail): Sequential(
          (0): Conv2d(8, 3, kernel_size=(5, 5), stride=(1, 1), padding=(2, 2))
        )
      )
      (upconv2): UpConv(
        (body): Sequential(
          (0): Conv2d(3, 12, kernel_size=(3, 3), stride=(1, 1), padding=(1, 1))
          (1): PixelShuffle(upscale_factor=2)
          (2): ReLU(inplace=True)
        )
      )
      (scale1_net): SingleScaleNet(
        (head): Sequential(
          (0): Conv2d(6, 8, kernel_size=(5, 5), stride=(1, 1), padding=(2, 2))
          (1): ReLU(inplace=True)
        )
        (body): Sequential(
          (0): ResidualBlock(
            (body): Sequential(
              (0): Conv2d(8, 8, kernel_size=(3, 3), stride=(1, 1), padding=(1, 1))
              (1): ReLU(inplace=True)
              (2): Conv2d(8, 8, kernel_size=(3, 3), stride=(1, 1), padding=(1, 1))
            )
          )
          (1): ResidualBlock(
            (body): Sequential(
              (0): Conv2d(8, 8, kernel_size=(3, 3), stride=(1, 1), padding=(1, 1))
              (1): ReLU(inplace=True)
              (2): Conv2d(8, 8, kernel_size=(3, 3), stride=(1, 1), padding=(1, 1))
            )
          )
          (2): ResidualBlock(
            (body): Sequential(
              (0): Conv2d(8, 8, kernel_size=(3, 3), stride=(1, 1), padding=(1, 1))
              (1): ReLU(inplace=True)
              (2): Conv2d(8, 8, kernel_size=(3, 3), stride=(1, 1), padding=(1, 1))
            )
          )
        )
        (tail): Sequential(
          (0): Conv2d(8, 3, kernel_size=(5, 5), stride=(1, 1), padding=(2, 2))
        )
      )
    )
    MSELoss()


### 损失函数和优化器

- Adam 优化器，初始学习率为 lr，其相对于 SGD，更自动化，实际中需要调整的参数较少，但需要注意的是，其使用内存也比 SGD 要高。
- 损失函数使用最常见的均方损失函数（MSELoss）:
  ![image-20211120222105417](C:\Users\Administrator\AppData\Roaming\Typora\typora-user-images\image-20211120222105417.png)
  其中 $f^{\prime}(i,j)$  和  $f(i,j)$  分别为模型输出结果图和非模糊图上坐标为  $(i,j)$  的像素，M,N分别表示图片的长与宽。
…
```python
INPUT_DIM = len(DOCUMENT.vocab)
OUTPUT_DIM = len(SUMMARY.vocab)
ENC_EMB_DIM = 256//64
DEC_EMB_DIM = 256//64
ENC_HID_DIM = 512//64
DEC_HID_DIM = 512//64
ENC_DROPOUT = 0.5
DEC_DROPOUT = 0.5
DOC_PAD_IDX = DOCUMENT.vocab.stoi[DOCUMENT.pad_token]

attn = Attention(ENC_HID_DIM,DEC_HID_DIM)
enc = Encoder(INPUT_DIM,ENC_EMB_DIM,ENC_HID_DIM,DEC_HID_DIM,ENC_DROPOUT)
dec = Decoder(OUTPUT_DIM,DEC_EMB_DIM,ENC_HID_DIM,DEC_HID_DIM,DEC_DROPOUT,attn)

model = Seq2Seq(enc,dec,DOC_PAD_IDX,device).to(device)
```

#### 查看模型


```python
model
```




    Seq2Seq(
      (encoder): Encoder(
        (embedding): Embedding(16555, 4)
        (rnn): GRU(4, 8, bidirectional=True)
        (fc): Linear(in_features=16, out_features=8, bias=True)
        (dropout): Dropout(p=0.5, inplace=False)
      )
      (decoder): Decoder(
        (attention): Attention(
          (attn): Linear(in_features=24, out_features=8, bias=True)
          (v): Linear(in_features=8, out_features=1, bias=False)
        )
        (embedding): Embedding(9267, 4)
        (rnn): GRU(20, 8)
        (fc_out): Linear(in_features=28, out_features=9267, bias=True)
        (dropout): Dropout(p=0.5, inplace=False)
      )
    )



### 模型训练
- 使用之前处理的训练数据对模型训练，主要包括
  - 定义训练函数
  - 定义验证函数
  - 定义时间显示函数
  - 训练过程
  - 模型保存

#### 定义训练函数
定义训练一个 epoch的函数，并返回损失，参数
- model: 用以训练的模型
- iteration: 用以训练的数据迭代器
- optimizer: 训练模型使用的优化器
- criterion: 训练模型使用的损失函数
- clip: 梯度截断的值， 传入torch.nn.utils.clip_grad_norm_中，如果梯度超过这个clip，会使用clip对梯度进行截断，可以预防训练初期的梯度爆炸现象。
…
